…
Average actions of items: 292.6261709601874
The number of inters: 999611
The sparsity of the dataset: 95.15741545057172%
Remain Fields: ['user_id', 'item_id', 'timestamp']
Wed 04 Jun 2025 15:17:50 INFO  [Training]: train_batch_size = [2048] train_neg_sample_args: [{'distribution': 'none', 'sample_num': 'none', 'alpha': 'none', 'dynamic': False, 'candidate_num': 0}]
Wed 04 Jun 2025 15:17:50 INFO  [Evaluation]: eval_batch_size = [4096] eval_args: [{'split': {'LS': 'valid_and_test'}, 'order': 'TO', 'group_by': 'user', 'mode': {'valid': 'full', 'test': 'full'}}]
Wed 04 Jun 2025 15:17:50 INFO  RecGRELA(
  (item_embedding): Embedding(3417, 64, padding_idx=0)
  (LayerNorm): LayerNorm((64,), eps=1e-12, elementwise_affine=True)
  (dropout): Dropout(p=0.1, inplace=False)
  (GRELA_block): ModuleList(
    (0-3): 4 x GRELA(
      (attn): RotaryEnhancedLinearAttention(
        (qk): Linear(in_features=64, out_features=128, bias=True)
        (elu): ELU(alpha=1.0)
        (conv1d): Conv1d(64, 64, kernel_size=(4,), stride=(1,), padding=(3,), groups=64)
        (rope): RoPE()
      )
      (in_proj): Linear(in_features=64, out_features=64, bias=True)
      (out_proj): Linear(in_features=64, out_features=64, bias=True)
      (dropout): Dropout(p=0.1, inplace=False)
      (LayerNorm1): LayerNorm((64,), eps=1e-12, elementwise_affine=True)
      (LayerNorm2): LayerNorm((64,), eps=1e-12, elementwise_affine=True)
      (mlp): Mlp(
        (fc1): Linear(in_features=64, out_features=256, bias=True)
        (act): GELU(approximate='none')
        (fc2): Linear(in_features=256, out_features=64, bias=True)
        (drop): Dropout(p=0.1, inplace=False)
      )
      (act_proj): Linear(in_features=64, out_features=64, bias=True)
      (act): SiLU()
      (drop_path): DropPath(drop_prob=0.100)
    )
  )
  (loss_fct): CrossEntropyLoss()
)
Trainable parameters: 436672
Wed 04 Jun 2025 15:17:51 INFO  FLOPs: 42841664.0
Wed 04 Jun 2025 15:19:08 INFO  epoch 0 training [time: 76.98s, train loss: 3033.4419]
Wed 04 Jun 2025 15:19:08 INFO  epoch 0 evaluating [time: 0.21s, valid_score: 0.107200]
…
